code/chapter-7/model_in_multi_gpu.pkl (torch_old, 958 bytes, 3 tensors)

module.linears.0.weight f4 [3, 3]
0.33369404 0.031695604 -0.13306457 0.043142438 0.045365512 0.123518765 0.057544827 -0.29029432
-0.26336083
00000000: f2d9 aa3e 40d3 013d 1442 08be 20b6 303d
00000010: 30d1 393d 68f7 fc3d 20b4 6b3d 75a1 94be
00000020: 3bd7 86be

module.linears.1.weight f4 [3, 3]
0.123467445 0.1520136 -0.16109684 0.4511087 -0.14599055 -0.10977849 0.06529671 -0.5025172
-0.16931894
00000000: 80dc fc3d 74a9 1b3e 92f6 24be b8f7 e63e
00000010: 8c7e 15be 8cd3 e0bd 48ba 853d f8a4 00bf
00000020: f261 2dbe

module.linears.2.weight f4 [3, 3]
0.36566007 -0.11072138 -0.23406854 0.0656715 -0.019394934 -0.31187022 -0.047656655 -0.10084203
0.24619597
00000000: cc37 bb3e e4c1 e2bd aaaf 6fbe c87e 863d
00000010: 20e2 9ebc 74ad 9fbe a033 43bd 4486 cebd
00000020: cc1a 7c3e
