code/chapter-7/model_in_gpu_0.pkl (torch_old, 888 bytes, 3 tensors)

linears.0.weight f4 [3, 3]
0	0x3f0f83d4	0.5606053
1	0x3ec847f6	0.39117402
2	0xbecc85b4	-0.39945757
3	0x3d3fb9b0	0.046807945
4	0xbee6f027	-0.45105097
5	0xbe55a770	-0.20864654
6	0xbe242344	-0.16029078
7	0x3e6d8244	0.23194224
8	0xbd4137e0	-0.047172427

linears.1.weight f4 [3, 3]
0	0xbd955630	-0.072918296
1	0xbec9182a	-0.39276248
2	0xbedeafd8	-0.43493533
3	0x3ec015e8	0.37516713
4	0xbef096d3	-0.4699007
5	0x3e1c5454	0.15266544
6	0xbedcf7c9	-0.43157795
7	0xbea00fcb	-0.3126205
8	0x3e8c1592	0.27360207

linears.2.weight f4 [3, 3]
0	0xbee5bbd6	-0.4486987
1	0x3ed63bc4	0.41842473
2	0xbb1fc600	-0.0024379492
3	0x3f008724	0.5020621
4	0xbded6c78	-0.115929544
5	0x3e934592	0.28764015
6	0x3ecec188	0.40382028
7	0x3e128280	0.14307594
8	0xbe26bc02	-0.16282657
